aws-PyTorch/trained-model/model.pth (torch, 644355 bytes, 2 tensors)

center_embeddings.weight f4 [628, 128]
000000 79 d2 29 be 7e 11 cd be 3b 55 b2 be 87 dd e5 bd
       -0.16584195 -0.40052408 -0.3483065 -0.112238936
000010 24 fa 87 bd a0 ff 1c 3e b9 c3 9c 3e a6 a2 4c 3e
       -0.066395074 0.15331888 0.30618075 0.1998392
000020 e8 9d 6f bd e5 9f 51 3e 7a 51 26 be 07 09 1f be
       -0.0585002 0.20471151 -0.16242018 -0.15530787
000030 0f f5 fd bd c5 34 93 3e ec 9f 15 3e e1 1a 6a 3b
       -0.12400257 0.28751197 0.14611787 0.0035721587
000040 9d 5e 4e bc d4 a7 a1 3e 82 4b 8f 3d f4 d7 89 3e
       -0.0125958 0.31573355 0.06996824 0.26922572
000050 8a e9 ad be d8 06 1c be f5 76 44 3e c7 ed 7b be
       -0.3396724 -0.15236986 0.19186004 -0.24602424
000060 58 d0 42 be bf 8d a5 be 51 9e eb bc 7a 37 ef 3d
       -0.1902479 -0.32334706 -0.028762015 0.11680503
000070 32 6d 76 3e cb 7b 14 3e ab 9e 56 3e 3f 9f 87 3d
       0.24065092 0.14500348 0.20958965 0.06622171
000080 6e 7b 99 bd 7d ab 32 3d 09 cd 6c be 14 ed 4a 3e
       -0.074942455 0.043620575 -0.2312509 0.19817
000090 5b 3d 86 be 8b f7 e4 3d 0c dd f9 bd ec 02 7c 3d
       -0.26218686 0.111800276 -0.122003645 0.061526224
0000a0 41 4a 42 3e b0 36 01 be 7b 4e 80 3d e7 a9 ff 3c
       0.18973638 -0.12618518 0.06264969 0.031208945
0000b0 f1 0a ec bd 9c b4 74 be 84 bd 1b 3e e8 b6 64 be
       -0.115255244 -0.23897022 0.15209013 -0.22335398
0000c0 db 26 aa be 74 dd e0 bb 16 fe d2 3e 2f e7 cc 3d
       -0.3323277 -0.006862337 0.41209477 0.10005032
0000d0 9f d8 bb 3b e5 c2 2c 3d 50 37 13 3e 97 a0 ab bd
       0.0057326104 0.042178053 0.14376569 -0.083802395
0000e0 dc cd 6a 3d ad ec fa 3d 0a 04 51 be 73 39 21 3b
       0.05732523 0.122521736 -0.20411697 0.0024600893
0000f0 d2 b4 87 3e 0f 98 c8 bd 52 17 be 3d d7 35 05 be
       0.26505142 -0.09794628 0.09281792 -0.1300882
000100 a0 d0 7d 3e b6 8c cc be 85 1d c3 bd a7 14 e8 3e
       0.24786615 -0.39951104 -0.09527115 0.45328256
000110 b0 38 5e be bf 6c b5 be 04 bc 01 3e 0c 93 47 be
       -0.21701312 -0.3543453 0.12669379 -0.19489688
000120 a7 03 01 be 12 e6 3e 3e 54 34 bc be 8e 3e 10 3e
       -0.1259905 0.18642452 -0.36758673 0.14086363
000130 c1 01 87 3e c7 2b 82 3d 12 cf 50 3e 1f 14 8e 3d
       0.26368526 0.06356006 0.20391491 0.069374315
000140 59 d3 2c 3f e2 0b 3d bc 0d 4d 9c bd af 8e 9d 3e
       0.6750999 -0.011538478 -0.07631884 0.3077292
000150 62 45 a6 3c d8 0a 38 3e c8 aa 49 3e 53 36 6d be
       0.020296756 0.17972887 0.19694054 -0.23165254
000160 ba 30 9e bd b9 50 8c 3e 7d 23 5a 3d b0 af 11 be
       -0.077241376 0.27405336 0.0532565 -0.14227176
000170 0d a8 74 be 96 01 81 bd c7 6c ae be 5a 3f fe be
       -0.23892231 -0.062991306 -0.34067366 -0.49657708
000180 89 30 c0 3e 75 32 9e be 9a 2c 53 bd b9 c9 4d be
       0.3753703 -0.3089787 -0.051556207 -0.20096482
000190 6b c1 2e 3f a2 e3 1a 3b f6 41 4c be 3e b1 1d 3e
       0.6826388 0.0023634215 -0.19947037 0.15399644
0001a0 99 79 c3 3d 73 9e ee 3d c5 9b 0c be 74 7a a3 be
       0.09544677 0.116513155 -0.13731296 -0.31929362
0001b0 ee f1 43 3e 06 5c 2f 3e 6e be c7 3b 77 cd 64 be
       0.19135258 0.17124948 0.006095699 -0.22344004
0001c0 09 90 bc 3c 94 8e af 3e a4 c4 16 be 73 b7 a1 be
       0.0230179 0.34288466 -0.1472345 -0.31585273
0001d0 6f 73 24 3d 4c bb f8 3c 07 e0 3c 3e 4f c1 03 3e
       0.04014915 0.030362748 0.18444835 0.1286671
0001e0 4f 9f c3 3d 38 52 53 3e 74 ee 5e be 5c 3d 74 bd
       0.0955187 0.20636833 -0.2177065 -0.05962883
0001f0 28 91 87 bd 47 fb 29 3f 60 96 33 be c1 32 fb bc
       -0.06619483 0.66399044 -0.17537832 -0.03066385
000200 9d e2 c0 be c5 b5 4c bd d9 ac 28 be ab 9a c2 3c
       -0.37672892 -0.049978036 -0.16472186 0.023755392
000210 d2 79 2e 3e 15 8c ee 3d c3 fd c9 bd ce d3 19 3e
       0.17038658 0.11647812 -0.09862854 0.15022203
000220 45 8e 18 bc 4a 2e 44 3e 26 a9 54 3e 17 7c 31 be
       -0.009311263 0.19158283 0.2076765 -0.17332493
000230 26 a5 0e 3d 8e d7 f0 3b 98 da 8c bd 85 a4 f3 3e
       0.034825467 0.007349915 -0.06877631 0.47586456
000240 77 ae c7 3d e1 b8 f4 bd 75 0d 89 3e a6 c4 3c bd
       0.097500734 -0.11949325 0.2676808 -0.046085976
000250 3d df ae bd e7 33 86 3e 43 29 1a bd e4 0b 1e bb
       -0.08538673 0.26211473 -0.037637006 -0.0024115974
000260 7e d1 3b bd fe 5a 49 ba 54 21 58 bd 08 5d 73 3e
       -0.045854084 -0.00076811004 -0.05276616 0.23765957
000270 25 37 98 bd 9a 8b 31 3e 10 4a 55 3d fb ea 1d 3e
       -0.07432393 0.1733841 0.052072585 0.15421669
000280 50 93 c0 be 98 f1 11 3d a3 55 bc 3c b2 63 57 be
       -0.3761239 0.035630792 0.022990054 -0.21034124
000290 6b d0 15 be a2 3e 97 bb 47 6b 59 3c 96 99 75 be
       -0.14630286 -0.0046156207 0.013270206 -0.2398437
0002a0 02 51 ad 3e 85 e9 19 3e 44 cb 14 3e e0 d7 00 3e
       0.33850867 0.15030487 0.14530665 0.1258235
0002b0 ae a5 62 be 87 bc 12 3e e2 51 3f 3e d3 7a 15 3e
       -0.22133514 0.1432973 0.1868358 0.14597635
0002c0 af ee 16 be c2 21 ea be 82 bf 27 3e 99 fd 8d 3d
       -0.14739488 -0.4572888 0.16381648 0.069331355
0002d0 64 5e 84 3d f4 01 98 bd 31 19 5f be 72 df 24 3d
       0.06463316 -0.074222475 -0.21786954 0.040252157
0002e0 d9 21 3a 3e a0 5c 2f 3e 24 10 c4 bd 26 82 91 3e
       0.18176974 0.17125177 -0.09573391 0.28419608
0002f0 0f 78 2c 3e fd 53 87 3d 95 4a 94 3d 0c d0 36 3e
       0.16842674 0.06607816 0.07240788 0.17852801
000300 1f ef e2 3c 36 22 a8 be 86 29 01 3c 7f f6 8b bd
       0.027701912 -0.328386 0.007883435 -0.06834125
000310 7e df 46 bd 10 f4 de bd 36 6b 63 3d 78 a2 5e 3d
       -0.048552983 -0.10886395 0.055522166 0.05435416
000320 f9 5d 02 3e 60 9c 16 3e 61 02 27 be 80 92 61 3d
       0.1273116 0.1470809 -0.16309501 0.055071354
000330 78 b7 de bd 01 1c 47 be e6 f3 ee 3c dd 8f b6 3d
       -0.10874838 -0.19444276 0.029169034 0.089141585
000340 f8 6e 12 3f 40 1c b9 3d 4c ea 80 3e 9a 10 b9 3d
       0.57200575 0.090385914 0.25178754 0.090363696
000350 62 6b a3 bd ae ff 44 3e 8d c9 72 3d 9f f2 5a 3e
       -0.07979466 0.19238159 0.059274245 0.21381615
000360 0c 24 a6 bd 93 6a a4 bd 05 40 49 bd ae 6b ce 3d
       -0.08112344 -0.0802814 -0.04913332 0.10079132
000370 ba 32 6b 3e 2d d2 b4 bc e8 70 a3 bb 0b fe d7 be
       0.2296857 -0.022072876 -0.0049878247 -0.42186007
000380 fc f8 64 be 43 14 da 3d da 52 e7 bd 6c 8b 6d bd
       -0.22360605 0.10648396 -0.112950996 -0.05799429
000390 f4 95 a4 3d ad 47 0b 3e b9 80 f6 3d 8b 2f 11 3e
       0.08036414 0.13601561 0.12036271 0.14178292
0003a0 1d be 4a 3c bd 60 27 3d c9 4b c3 3d 43 3b 53 ba
       0.012374428 0.04086374 0.09535939 -0.0008057842
0003b0 e9 8b d4 3c 42 4d 16 3d 85 67 8b 3e 4e 33 a4 bd
       0.02594562 0.036694773 0.27227417 -0.08017598
0003c0 7c 9f 0d 3e ec 78 38 3f 1e 05 68 be 6f 9a 51 3b
       0.1383037 0.7205951 -0.22658202 0.0031982919
0003d0 e8 e0 a2 bd 33 9f b1 bd c3 21 fb bd b5 75 90 be
       -0.07953054 -0.08672943 -0.12262299 -0.28214803
0003e0 97 74 1b be 7d 30 b2 bd ea b9 b0 bd 45 ff 07 3e
       -0.15181194 -0.08700655 -0.0862921 0.13280971
0003f0 87 7a 78 bd d6 59 4c 3e 9f 7a 17 3e 65 67 f5 bd
       -0.060663726 0.19956145 0.1479287 -0.119826116

context_embeddings.weight f4 [628, 128]
000000 e0 70 61 3f a5 29 8b be 77 d1 0c 3f 76 a7 71 3f
       0.8806286 -0.2718021 0.5500712 0.9439615
000010 3c 91 29 3e 6c e1 3c be a0 5a 3c 3f c4 92 15 be
       0.16559309 -0.18445367 0.7357578 -0.14606768
000020 aa 2a 17 bf 8c e7 c5 be 00 7a 1a bf 95 c1 c9 be
       -0.59049475 -0.3865322 -0.6034241 -0.39405504
000030 29 9b 81 3d ef 8a 61 be 1f f9 2a bd 95 c8 8d 3e
       0.063284226 -0.22025655 -0.041741487 0.27692094
000040 74 38 66 be fc e6 a4 3d f1 c2 14 bf b2 28 5d be
       -0.22482473 0.08051869 -0.58109957 -0.21597555
000050 78 58 6c be 18 83 78 bd 75 aa eb 3d df 40 00 3e
       -0.23080623 -0.060671896 0.115071215 0.12524746
000060 a5 da 96 3e a8 95 8c bc e8 d0 aa be 32 b7 05 3f
       0.29463688 -0.017161205 -0.33362508 0.5223266
000070 25 09 45 3f 62 a9 8c 3e 98 27 1b 3e 82 d7 42 bf
       0.7696708 0.2747298 0.15151823 -0.7611009
000080 99 ed 6c 3e e3 3e b1 3e 68 2e d3 3e 61 20 ec 3c
       0.23137511 0.3461829 0.41246343 0.028824033
000090 49 99 a5 3e a0 94 1d 3f 55 47 7c 3f 6c d5 6a bb
       0.3234351 0.6155491 0.98546344 -0.0035832776
0000a0 1c 06 09 be 78 3e 62 3e c5 74 27 3f 16 ed e8 bc
       -0.13381237 0.22094142 0.6541255 -0.028433364
0000b0 bd 45 d3 3e 81 97 6b 3e 90 be c4 be 03 87 14 be
       0.41264144 0.23007013 -0.38426638 -0.14504628
0000c0 8e 32 da be 0c 8f 93 3e aa d2 bd 3e fb 8b 24 bf
       -0.42616695 0.28820074 0.37074786 -0.64276093
0000d0 fa 86 c1 3e 64 fb 29 bf 8c 89 c1 be 38 51 6f bf
       0.3779829 -0.66399217 -0.37800252 -0.93483305
0000e0 dc 17 07 3e 3f c2 41 bf e5 3c b9 3c 4e de b8 be
       0.13192695 -0.7568702 0.022612045 -0.36107105
0000f0 f7 9c 50 3d 15 da 70 3e 90 54 11 3f 0f d2 96 3e
       0.050930943 0.23520692 0.5676966 0.29457137
000100 f7 58 96 be 7b 1d b0 3e b6 4c 92 be 96 53 54 3e
       -0.2936475 0.34397492 -0.2857415 0.2073501
000110 6e d4 ad 3e 69 9c 63 bf 42 53 41 bf 4e 68 ae 3c
       0.33951133 -0.8891054 -0.75517666 0.02128997
000120 73 f0 7d bd 90 7a af be 6e 67 80 3f 61 aa bd bd
       -0.06199689 -0.34273195 1.0031564 -0.09261013
000130 58 50 75 3e 60 0e 53 3e 9f 4e 18 bf 65 0e 7f 3f
       0.2395643 0.20610952 -0.59494966 0.9963134
000140 19 09 7f bd e7 5b a9 3c e2 66 fd bd 0b 00 0f be
       -0.062264536 0.020673705 -0.12373139 -0.1396486
000150 23 68 ef 3e 72 29 44 3e f7 29 20 bd 8e 08 c5 3e
       0.46759138 0.19156435 -0.03910252 0.3848309
000160 d9 ee c3 be 51 6a b3 bd e9 3a 18 be 36 30 35 be
       -0.38268164 -0.087605126 -0.14866222 -0.17694172
000170 63 de a9 be fb 98 5b 3d f9 53 33 3f 1e b7 a9 3d
       -0.3317748 0.05361269 0.7005001 0.0828688
000180 cf fc 7b 3b 84 10 f2 be fc 0c 0d bd 55 af 01 3f
       0.0038450246 -0.47278225 -0.03443621 0.5065816
000190 81 65 a8 3e 26 7c 96 be ae 84 40 be 67 66 c8 be
       0.3288994 -0.29391593 -0.18800613 -0.39140627
0001a0 69 d4 cf be 53 15 a7 bd 58 50 97 bc 57 6f e1 be
       -0.40591744 -0.08158364 -0.018470928 -0.44030258
0001b0 f6 8a 67 3e c3 77 23 bd 87 45 77 be 48 8e 4f 3f
       0.22611603 -0.039909136 -0.24147616 0.8107648
0001c0 d4 23 b9 3e 89 77 6a 3e ac fb e7 3e 06 e4 b4 be
       0.36160147 0.22897162 0.45309198 -0.35330218
0001d0 2b 5e 0c bd 90 e0 93 3e ee 2c 4a be 1e 4e 51 be
       -0.034269493 0.28882265 -0.19743702 -0.20439956
0001e0 76 0b 24 3e de 68 0f be 4b f0 7e be 53 1e 4e bd
       0.16019997 -0.14004847 -0.24896352 -0.05032189
0001f0 a5 11 b8 bf dd 4c 9e bd 7e 13 ea be 5d f8 34 3e
       -1.4380385 -0.07729504 -0.45717996 0.17672868
000200 51 0a 56 3f c1 80 de 3d a4 1d bc be 4d 42 67 bd
       0.8360949 0.108644016 -0.36741364 -0.056459714
000210 08 7d 26 bd ac c5 9a be 22 25 01 3f 31 49 a0 3e
       -0.040646583 -0.30228937 0.50447285 0.3130584
000220 58 10 e0 bc 3f d0 9c be d3 8d 10 3d 08 00 db bd
       -0.027351543 -0.3062763 0.035291504 -0.10693365
000230 c0 18 ef 3e d9 f6 cb 3e fb dc c9 be e7 c3 da 3e
       0.4669857 0.39836767 -0.39426407 0.42727587
000240 89 bf b4 be f9 43 e0 bd 16 fa 6e be c8 f8 a7 be
       -0.3530238 -0.10950465 -0.23337588 -0.32806993
000250 21 39 e5 3e a1 65 1f bd 9d 3c 67 3e 81 83 69 3b
       0.44770148 -0.03891528 0.22581716 0.003563136
000260 02 f3 ff bd 01 d2 8e 3e 9b 75 89 be af 00 4b be
       -0.12497522 0.27894595 -0.26847538 -0.1982448
000270 17 57 ba 3e dc 68 30 3d 71 86 5f bd 44 98 54 3d
       0.3639457 0.04306875 -0.054571573 0.051903024
000280 8b 27 07 3f fc 08 7a 3e df 6e e2 3d 00 8f 62 3e
       0.5279471 0.2441749 0.11056303 0.22124863
000290 d0 71 fb 3e 8c f9 38 be 76 d5 67 3f 41 76 3a be
       0.4911027 -0.18063945 0.9056009 -0.18209173
0002a0 6d 11 68 3d a8 90 c1 be 9c c8 02 3f 47 1e 18 3e
       0.056657244 -0.37805676 0.51087356 0.148553
0002b0 02 8d 38 3f cc 73 3d 3e 3e dc 68 be c8 1e 1d be
       0.7209016 0.18501204 -0.22740266 -0.15343773
0002c0 db cf 36 bd ac be 41 3e b7 5c ed be ce 71 d6 be
       -0.04463182 0.18920392 -0.46359798 -0.418837
0002d0 ae 4a 80 be 2b e4 2d 3c 9f 47 a0 3c c0 1d 0c be
       -0.25056976 0.0106134815 0.019565402 -0.13683224
0002e0 7d 4d 3f be b1 fc 01 be b0 da dc 3e b0 31 b0 bd
       -0.18681903 -0.1269405 0.43135595 -0.08603227
0002f0 1e 03 3b 3e e0 97 16 3e 34 f5 12 be e2 89 60 3f
       0.18262908 0.14706373 -0.1435135 0.8771039
000300 5f 32 7a be 30 1b 37 3e 6d 65 26 be e2 ee a6 be
       -0.24433278 0.17881465 -0.16249628 -0.32604128
000310 81 8d 83 3e 81 13 06 bf 56 b7 54 bf 80 ac 19 3f
       0.25693896 -0.5237351 -0.8309225 0.6002884
000320 17 6a 59 3e f2 af 18 be b4 61 2c 3f 9b be e5 3e
       0.21231876 -0.14910868 0.67336583 0.44871983
000330 e6 5f 1f 3d 99 9b 6f 3e e8 f8 27 bf 92 71 de 3e
       0.038909815 0.233992 -0.65614176 0.43446022
000340 e2 d6 9b bd f7 be 50 bd 0c 8c 1f 3e 01 73 cf 3c
       -0.07609345 -0.05096337 0.15580767 0.025323393
000350 1f 30 1c 3e 60 55 87 3f e7 b0 72 bc e4 2b 86 3e
       0.15252732 1.0572929 -0.014812685 0.2620536
000360 e8 1e da be c9 33 f4 be 1e 40 44 be da 51 22 bd
       -0.42601705 -0.4769576 -0.19165084 -0.03962884
000370 ad ef bc be c7 f4 3a be 58 00 19 3d d3 a5 9c 3e
       -0.36901608 -0.18257438 0.037353843 0.30595264
000380 8c de d2 bd 2e 1a 2f be 7d aa 8b be 59 ba d5 bd
       -0.10296354 -0.1709983 -0.2727851 -0.104359336
000390 c3 12 18 3f e6 a3 87 3c d0 6a 41 be c7 49 0e be
       0.5940363 0.016557645 -0.18888402 -0.13895331
0003a0 26 b6 87 3e 3a 35 c2 be 2c e4 81 3d 60 40 22 be
       0.26506156 -0.37931234 0.063423485 -0.1584487
0003b0 8d ba 99 be b0 fe 9f 3d a8 a0 8d 3e 3c a8 d3 be
       -0.3002514 0.0781225 0.27661633 -0.4133929
0003c0 6b 39 4c 3f 26 da 42 3e 5b c7 06 bf 00 a2 db bd
       0.7977511 0.1902853 -0.5264794 -0.107242584
0003d0 d0 49 56 be 2e 56 c7 be b3 b0 41 3c 66 03 bb 3e
       -0.20926595 -0.38932937 0.0118219135 0.3652603
0003e0 e3 d6 9c be d2 c0 9d 3e 99 f5 0e 3e 48 52 6b 3e
       -0.30632696 0.30811173 0.13960876 0.22980607
0003f0 ff e3 56 bf 45 3a ba be 30 45 83 3e 4c db f8 3e
       -0.83941644 -0.3637258 0.25638723 0.4860481
